…
llib3/__init__.py:35: NotOpenSSLWarning: urllib3 v2 only supports OpenSSL 1.1.1+, currently the 'ssl' module is compiled with 'LibreSSL 2.8.3'. See: https://github.com/urllib3/urllib3/issues/3020
  warnings.warn(
/Users/radia78/Projects/MLM24/rotten-tomatoes-mlm24/mlm24-venv/lib/python3.9/site-packages/kornia/feature/lightglue.py:44: FutureWarning: `torch.cuda.amp.custom_fwd(args...)` is deprecated. Please use `torch.amp.custom_fwd(args..., device_type='cuda')` instead.
  @torch.cuda.amp.custom_fwd(cast_inputs=torch.float32)
Dexined Model Info:
DexiNed(
  (block_1): DoubleConvBlock(
    (conv1): Conv2d(3, 32, kernel_size=(3, 3), stride=(2, 2), padding=(1, 1))
    (bn1): BatchNorm2d(32, eps=1e-05, momentum=0.1, affine=True, track_running_stats=True)
    (relu1): ReLU(inplace=True)
    (conv2): Conv2d(32, 64, kernel_size=(3, 3), stride=(1, 1), padding=(1, 1))
    (bn2): BatchNorm2d(64, eps=1e-05, momentum=0.1, affine=True, track_running_stats=True)
    (relu2): ReLU(inplace=True)
  )
  (block_2): DoubleConvBlock(
    (conv1): Conv2d(64, 128, kernel_size=(3, 3), stride=(1, 1), padding=(1, 1))
    (bn1): BatchNorm2d(128, eps=1e-05, momentum=0.1, affine=True, track_running_stats=True)
    (relu1): ReLU(inplace=True)
    (conv2): Conv2d(128, 128, kernel_size=(3, 3), stride=(1, 1), padding=(1, 1))
    (bn2): BatchNorm2d(128, eps=1e-05, momentum=0.1, affine=True, track_running_stats=True)
  )
  (dblock_3): _DenseBlock(
    (denselayer1): _DenseLayer(
      (relu1): ReLU(inplace=True)
      (conv1): Conv2d(128, 256, kernel_size=(3, 3), stride=(1, 1), padding=(2, 2))
      (norm1): BatchNorm2d(256, eps=1e-05, momentum=0.1, affine=True, track_running_stats=True)
      (relu2): ReLU(inplace=True)
      (conv2): Conv2d(256, 256, kernel_size=(3, 3), stride=(1, 1))
      (norm2): BatchNorm2d(256, eps=1e-05, momentum=0.1, affine=True, track_running_stats=True)
    )
    (denselayer2): _DenseLayer(
      (relu1): ReLU(inplace=True)
      (conv1): Conv2d(256, 256, kernel_size=(3, 3), stride=(1, 1), padding=(2, 2))
      (norm1): BatchNorm2d(256, eps=1e-05, momentum=0.1, affine=True, track_running_stats=True)
      (relu2): ReLU(inplace=True)
      (conv2): Conv2d(256, 256, kernel_size=(3, 3), stride=(1, 1))
      (norm2): BatchNorm2d(256, eps=1e-05, momentum=0.1, affine=True, track_running_stats=True)
    )
  )
  (dblock_4): _DenseBlock(
    (denselayer1): _DenseLayer(
      (relu1): ReLU(inplace=True)
      (conv1): Conv2d(256, 512, kernel_size=(3, 3), stride=(1, 1), padding=(2, 2))
      (norm1): BatchNorm2d(512, eps=1e-05, momentum=0.1, affine=True, track_running_stats=True)
      (relu2): ReLU(inplace=True)
      (conv2): Conv2d(512, 512, kernel_size=(3, 3), stride=(1, 1))
      (norm2): BatchNorm2d(512, eps=1e-05, momentum=0.1, affine=True, track_running_stats=True)
    )
    (denselayer2): _DenseLayer(
      (relu1): ReLU(inplace=True)
      (conv1): Conv2d(512, 512, kernel_size=(3, 3), stride=(1, 1), padding=(2, 2))
      (norm1): BatchNorm2d(512, eps=1e-05, momentum=0.1, affine=True, track_running_stats=True)
      (relu2): ReLU(inplace=True)
      (conv2): Conv2d(512, 512, kernel_size=(3, 3), stride=(1, 1))
      (norm2): BatchNorm2d(512, eps=1e-05, momentum=0.1, affine=True, track_running_stats=True)
    )
    (denselayer3): _DenseLayer(
      (relu1): ReLU(inplace=True)
      (conv1): Conv2d(512, 512, kernel_size=(3, 3), stride=(1, 1), padding=(2, 2))
      (norm1): BatchNorm2d(512, eps=1e-05, momentum=0.1, affine=True, track_running_stats=True)
      (relu2): ReLU(inplace=True)
      (conv2): Conv2d(512, 512, kernel_size=(3, 3), stride=(1, 1))
      (norm2): BatchNorm2d(512, eps=1e-05, momentum=0.1, affine=True, track_running_stats=True)
    )
  )
  (dblock_5): _DenseBlock(
    (denselayer1): _DenseLayer(
      (relu1): ReLU(inplace=True)
      (conv1): Conv2d(512, 512, kernel_size=(3, 3), stride=(1, 1), padding=(2, 2))
      (norm1): BatchNorm2d(512, eps=1e-05, momentum=0.1, affine=True, track_running_stats=True)
      (relu2): ReLU(inplace=True)
      (conv2): Conv2d(512, 512, kernel_size=(3, 3), stride=(1, 1))
      (norm2): BatchNorm2d(512, eps=1e-05, momentum=0.1, affine=True, track_running_stats=True)
    )
    (denselayer2): _DenseLayer(
      (relu1): ReLU(inplace=True)
      (conv1): Conv2d(512, 512, kernel_size=(3, 3), stride=(1, 1), padding=(2, 2))
      (norm1): BatchNorm2d(512, eps=1e-05, momentum=0.1, affine=True, track_running_stats=True)
      (relu2): ReLU(inplace=True)
      (conv2): Conv2d(512, 512, kernel_size=(3, 3), stride=(1, 1))
      (norm2): BatchNorm2d(512, eps=1e-05, momentum=0.1, affine=True, track_running_stats=True)
    )
    (denselayer3): _DenseLayer(
      (relu1): ReLU(inplace=True)
      (conv1): Conv2d(512, 512, kernel_size=(3, 3), stride=(1, 1), padding=(2, 2))
      (norm1): BatchNorm2d(512, eps=1e-05, momentum=0.1, affine=True, track_running_stats=True)
      (relu2): ReLU(inplace=True)
      (conv2): Conv2d(512, 512, kernel_size=(3, 3), stride=(1, 1))
      (norm2): BatchNorm2d(512, eps=1e-05, momentum=0.1, affine=True, track_running_stats=True)
    )
  )
  (dblock_6): _DenseBlock(
    (denselayer1): _DenseLayer(
      (relu1): ReLU(inplace=True)
      (conv1): Conv2d(512, 256, kernel_size=(3, 3), stride=(1, 1), padding=(2, 2))
      (norm1): BatchNorm2d(256, eps=1e-05, momentum=0.1, affine=True, track_running_stats=True)
      (relu2): ReLU(inplace=True)
      (conv2): Conv2d(256, 256, kernel_size=(3, 3), stride=(1, 1))
      (norm2): BatchNorm2d(256, eps=1e-05, momentum=0.1, affine=True, track_running_stats=True)
    )
    (denselayer2): _DenseLayer(
      (relu1): ReLU(inplace=True)
      (conv1): Conv2d(256, 256, kernel_size=(3, 3), stride=(1, 1), padding=(2, 2))
      (norm1): BatchNorm2d(256, eps=1e-05, momentum=0.1, affine=True, track_running_stats=True)
      (relu2): ReLU(inplace=True)
      (conv2): Conv2d(256, 256, kernel_size=(3, 3), stride=(1, 1))
      (norm2): BatchNorm2d(256, eps=1e-05, momentum=0.1, affine=True, track_running_stats=True)
    )
    (denselayer3): _DenseLayer(
      (relu1): ReLU(inplace=True)
      (conv1): Conv2d(256, 256, kernel_size=(3, 3), stride=(1, 1), padding=(2, 2))
      (norm1): BatchNorm2d(256, eps=1e-05, momentum=0.1, affine=True, track_running_stats=True)
      (relu2): ReLU(inplace=True)
      (conv2): Conv2d(256, 256, kernel_size=(3, 3), stride=(1, 1))
      (norm2): BatchNorm2d(256, eps=1e-05, momentum=0.1, affine=True, track_running_stats=True)
    )
  )
  (maxpool): MaxPool2d(kernel_size=3, stride=2, padding=1, dilation=1, ceil_mode=False)
  (side_1): SingleConvBlock(
    (conv): Conv2d(64, 128, kernel_size=(1, 1), stride=(2, 2))
    (bn): BatchNorm2d(128, eps=1e-05, momentum=0.1, affine=True, track_running_stats=True)
  )
  (side_2): SingleConvBlock(
    (conv): Conv2d(128, 256, kernel_size=(1, 1), stride=(2, 2))
    (bn): BatchNorm2d(256, eps=1e-05, momentum=0.1, affine=True, track_running_stats=True)
  )
  (side_3): SingleConvBlock(
    (conv): Conv2d(256, 512, kernel_size=(1, 1), stride=(2, 2))
    (bn): BatchNorm2d(512, eps=1e-05, momentum=0.1, affine=True, track_running_stats=True)
  )
  (side_4): SingleConvBlock(
    (conv): Conv2d(512, 512, kernel_size=(1, 1), stride=(1, 1))
    (bn): BatchNorm2d(512, eps=1e-05, momentum=0.1, affine=True, track_running_stats=True)
  )
  (side_5): SingleConvBlock(
    (conv): Conv2d(512, 256, kernel_size=(1, 1), stride=(1, 1))
    (bn): BatchNorm2d(256, eps=1e-05, momentum=0.1, affine=True, track_running_stats=True)
  )
  (pre_dense_2): SingleConvBlock(
    (conv): Conv2d(128, 256, kernel_size=(1, 1), stride=(2, 2))
    (bn): BatchNorm2d(256, eps=1e-05, momentum=0.1, affine=True, track_running_stats=True)
  )
  (pre_dense_3): SingleConvBlock(
    (conv): Conv2d(128, 256, kernel_size=(1, 1), stride=(1, 1))
    (bn): BatchNorm2d(256, eps=1e-05, momentum=0.1, affine=True, track_running_stats=True)
  )
  (pre_dense_4): SingleConvBlock(
    (conv): Conv2d(256, 512, kernel_size=(1, 1), stride=(1, 1))
    (bn): BatchNorm2d(512, eps=1e-05, momentum=0.1, affine=True, track_running_stats=True)
  )
  (pre_dense_5): SingleConvBlock(
    (conv): Conv2d(512, 512, kernel_size=(1, 1), stride=(1, 1))
    (bn): BatchNorm2d(512, eps=1e-05, momentum=0.1, affine=True, track_running_stats=True)
  )
  (pre_dense_6): SingleConvBlock(
    (conv): Conv2d(512, 256, kernel_size=(1, 1), stride=(1, 1))
    (bn): BatchNorm2d(256, eps=1e-05, momentum=0.1, affine=True, track_running_stats=True)
  )
  (up_block_1): UpConvBlock(
    (features): Sequential(
      (0): Conv2d(64, 1, kernel_size=(1, 1), stride=(1, 1))
      (1): ReLU(inplace=True)
      (2): ConvTranspose2d(1, 1, kernel_size=(2, 2), stride=(2, 2))
    )
  )
  (up_block_2): UpConvBlock(
    (features): Sequential(
      (0): Conv2d(128, 1, kernel_size=(1, 1), stride=(1, 1))
      (1): ReLU(inplace=True)
      (2): ConvTranspose2d(1, 1, kernel_size=(2, 2), stride=(2, 2))
    )
  )
  (up_block_3): UpConvBlock(
    (features): Sequential(
      (0): Conv2d(256, 16, kernel_size=(1, 1), stride=(1, 1))
      (1): ReLU(inplace=True)
      (2): ConvTranspose2d(16, 16, kernel_size=(4, 4), stride=(2, 2), padding=(1, 1))
      (3): Conv2d(16, 1, kernel_size=(1, 1), stride=(1, 1))
      (4): ReLU(inplace=True)
      (5): ConvTranspose2d(1, 1, kernel_size=(4, 4), stride=(2, 2), padding=(1, 1))
    )
  )
  (up_block_4): UpConvBlock(
    (features): Sequential(
      (0): Conv2d(512, 16, kernel_size=(1, 1), stride=(1, 1))
      (1): ReLU(inplace=True)
      (2): ConvTranspose2d(16, 16, kernel_size=(8, 8), stride=(2, 2), padding=(3, 3))
      (3): Conv2d(16, 16, kernel_size=(1, 1), stride=(1, 1))
      (4): ReLU(inplace=True)
      (5): ConvTranspose2d(16, 16, kernel_size=(8, 8), stride=(2, 2), padding=(3, 3))
      (6): Conv2d(16, 1, kernel_size=(1, 1), stride=(1, 1))
      (7): ReLU(inplace=True)
      (8): ConvTranspose2d(1, 1, kernel_size=(8, 8), stride=(2, 2), padding=(3, 3))
    )
  )
  (up_block_5): UpConvBlock(
    (features): Sequential(
      (0): Conv2d(512, 16, kernel_size=(1, 1), stride=(1, 1))
      (1): ReLU(inplace=True)
      (2): ConvTranspose2d(16, 16, kernel_size=(16, 16), stride=(2, 2), padding=(7, 7))
      (3): Conv2d(16, 16, kernel_size=(1, 1), stride=(1, 1))
      (4): ReLU(inplace=True)
      (5): ConvTranspose2d(16, 16, kernel_size=(16, 16), stride=(2, 2), padding=(7, 7))
      (6): Conv2d(16, 16, kernel_size=(1, 1), stride=(1, 1))
      (7): ReLU(inplace=True)
      (8): ConvTranspose2d(16, 16, kernel_size=(16, 16), stride=(2, 2), padding=(7, 7))
      (9): Conv2d(16, 1, kernel_size=(1, 1), stride=(1, 1))
      (10): ReLU(inplace=True)
      (11): ConvTranspose2d(1, 1, kernel_size=(16, 16), stride=(2, 2), padding=(7, 7))
    )
  )
  (up_block_6): UpConvBlock(
    (features): Sequential(
      (0): Conv2d(256, 16, kernel_size=(1, 1), stride=(1, 1))
      (1): ReLU(inplace=True)
      (2): ConvTranspose2d(16, 16, kernel_size=(16, 16), stride=(2, 2), padding=(7, 7))
      (3): Conv2d(16, 16, kernel_size=(1, 1), stride=(1, 1))
      (4): ReLU(inplace=True)
      (5): ConvTranspose2d(16, 16, kernel_size=(16, 16), stride=(2, 2), padding=(7, 7))
      (6): Conv2d(16, 16, kernel_size=(1, 1), stride=(1, 1))
      (7): ReLU(inplace=True)
      (8): ConvTranspose2d(16, 16, kernel_size=(16, 16), stride=(2, 2), padding=(7, 7))
      (9): Conv2d(16, 1, kernel_size=(1, 1), stride=(1, 1))
      (10): ReLU(inplace=True)
      (11): ConvTranspose2d(1, 1, kernel_size=(16, 16), stride=(2, 2), padding=(7, 7))
    )
  )
  (block_cat): SingleConvBlock(
    (conv): Conv2d(6, 1, kernel_size=(1, 1), stride=(1, 1))
    (bn): BatchNorm2d(1, eps=1e-05, momentum=0.1, affine=True, track_running_stats=True)
  )
)
    def forward(self, x: Tensor) -> list[Tensor]:
        # Block 1
        block_1 = self.block_1(x)
        block_1_side = self.side_1(block_1)

        # Block 2
        block_2 = self.block_2(block_1)
        block_2_down = self.maxpool(block_2)
        block_2_add = block_2_down + block_1_side
        block_2_side = self.side_2(block_2_add)
…
        out_6 = self.up_block_6(block_6, out_shape)
        results = [out_1, out_2, out_3, out_4, out_5, out_6]

        # concatenate multiscale outputs
        block_cat = concatenate(results, 1)  # Bx6xHxW
        block_cat = self.block_cat(block_cat)  # Bx1xHxW

        # return results
        results.append(block_cat)
        return results

torch.Size([1, 1, 1408, 896])
torch.Size([1, 1, 1408, 896])
torch.Size([1, 1, 1408, 896])
torch.Size([1, 1, 1408, 896])
torch.Size([1, 1, 1408, 896])
torch.Size([1, 1, 1408, 896])
torch.Size([1, 1, 1408, 896])

U-Net model info
Unet(
  (encoder): ResNetEncoder(
    (conv1): Conv2d(3, 64, kernel_size=(7, 7), stride=(2, 2), padding=(3, 3), bias=False)
    (bn1): BatchNorm2d(64, eps=1e-05, momentum=0.1, affine=True, track_running_stats=True)
    (relu): ReLU(inplace=True)
    (maxpool): MaxPool2d(kernel_size=3, stride=2, padding=1, dilation=1, ceil_mode=False)
    (layer1): Sequential(
      (0): BasicBlock(
        (conv1): Conv2d(64, 64, kernel_size=(3, 3), stride=(1, 1), padding=(1, 1), bias=False)
        (bn1): BatchNorm2d(64, eps=1e-05, momentum=0.1, affine=True, track_running_stats=True)
        (relu): ReLU(inplace=True)
        (conv2): Conv2d(64, 64, kernel_size=(3, 3), stride=(1, 1), padding=(1, 1), bias=False)
        (bn2): BatchNorm2d(64, eps=1e-05, momentum=0.1, affine=True, track_running_stats=True)
      )
      (1): BasicBlock(
        (conv1): Conv2d(64, 64, kernel_size=(3, 3), stride=(1, 1), padding=(1, 1), bias=False)
        (bn1): BatchNorm2d(64, eps=1e-05, momentum=0.1, affine=True, track_running_stats=True)
        (relu): ReLU(inplace=True)
        (conv2): Conv2d(64, 64, kernel_size=(3, 3), stride=(1, 1), padding=(1, 1), bias=False)
        (bn2): BatchNorm2d(64, eps=1e-05, momentum=0.1, affine=True, track_running_stats=True)
      )
      (2): BasicBlock(
        (conv1): Conv2d(64, 64, kernel_size=(3, 3), stride=(1, 1), padding=(1, 1), bias=False)
        (bn1): BatchNorm2d(64, eps=1e-05, momentum=0.1, affine=True, track_running_stats=True)
        (relu): ReLU(inplace=True)
        (conv2): Conv2d(64, 64, kernel_size=(3, 3), stride=(1, 1), padding=(1, 1), bias=False)
        (bn2): BatchNorm2d(64, eps=1e-05, momentum=0.1, affine=True, track_running_stats=True)
      )
    )
    (layer2): Sequential(
      (0): BasicBlock(
        (conv1): Conv2d(64, 128, kernel_size=(3, 3), stride=(2, 2), padding=(1, 1), bias=False)
        (bn1): BatchNorm2d(128, eps=1e-05, momentum=0.1, affine=True, track_running_stats=True)
        (relu): ReLU(inplace=True)
        (conv2): Conv2d(128, 128, kernel_size=(3, 3), stride=(1, 1), padding=(1, 1), bias=False)
        (bn2): BatchNorm2d(128, eps=1e-05, momentum=0.1, affine=True, track_running_stats=True)
        (downsample): Sequential(
          (0): Conv2d(64, 128, kernel_size=(1, 1), stride=(2, 2), bias=False)
          (1): BatchNorm2d(128, eps=1e-05, momentum=0.1, affine=True, track_running_stats=True)
        )
      )
      (1): BasicBlock(
        (conv1): Conv2d(128, 128, kernel_size=(3, 3), stride=(1, 1), padding=(1, 1), bias=False)
        (bn1): BatchNorm2d(128, eps=1e-05, momentum=0.1, affine=True, track_running_stats=True)
        (relu): ReLU(inplace=True)
        (conv2): Conv2d(128, 128, kernel_size=(3, 3), stride=(1, 1), padding=(1, 1), bias=False)
        (bn2): BatchNorm2d(128, eps=1e-05, momentum=0.1, affine=True, track_running_stats=True)
      )
      (2): BasicBlock(
        (conv1): Conv2d(128, 128, kernel_size=(3, 3), stride=(1, 1), padding=(1, 1), bias=False)
        (bn1): BatchNorm2d(128, eps=1e-05, momentum=0.1, affine=True, track_running_stats=True)
        (relu): ReLU(inplace=True)
        (conv2): Conv2d(128, 128, kernel_size=(3, 3), stride=(1, 1), padding=(1, 1), bias=False)
        (bn2): BatchNorm2d(128, eps=1e-05, momentum=0.1, affine=True, track_running_stats=True)
      )
      (3): BasicBlock(
        (conv1): Conv2d(128, 128, kernel_size=(3, 3), stride=(1, 1), padding=(1, 1), bias=False)
        (bn1): BatchNorm2d(128, eps=1e-05, momentum=0.1, affine=True, track_running_stats=True)
        (relu): ReLU(inplace=True)
        (conv2): Conv2d(128, 128, kernel_size=(3, 3), stride=(1, 1), padding=(1, 1), bias=False)
        (bn2): BatchNorm2d(128, eps=1e-05, momentum=0.1, affine=True, track_running_stats=True)
      )
    )
    (layer3): Sequential(
      (0): BasicBlock(
        (conv1): Conv2d(128, 256, kernel_size=(3, 3), stride=(2, 2), padding=(1, 1), bias=False)
        (bn1): BatchNorm2d(256, eps=1e-05, momentum=0.1, affine=True, track_running_stats=True)
        (relu): ReLU(inplace=True)
        (conv2): Conv2d(256, 256, kernel_size=(3, 3), stride=(1, 1), padding=(1, 1), bias=False)
        (bn2): BatchNorm2d(256, eps=1e-05, momentum=0.1, affine=True, track_running_stats=True)
        (downsample): Sequential(
          (0): Conv2d(128, 256, kernel_size=(1, 1), stride=(2, 2), bias=False)
          (1): BatchNorm2d(256, eps=1e-05, momentum=0.1, affine=True, track_running_stats=True)
        )
      )
      (1): BasicBlock(
        (conv1): Conv2d(256, 256, kernel_size=(3, 3), stride=(1, 1), padding=(1, 1), bias=False)
        (bn1): BatchNorm2d(256, eps=1e-05, momentum=0.1, affine=True, track_running_stats=True)
        (relu): ReLU(inplace=True)
        (conv2): Conv2d(256, 256, kernel_size=(3, 3), stride=(1, 1), padding=(1, 1), bias=False)
        (bn2): BatchNorm2d(256, eps=1e-05, momentum=0.1, affine=True, track_running_stats=True)
      )
      (2): BasicBlock(
        (conv1): Conv2d(256, 256, kernel_size=(3, 3), stride=(1, 1), padding=(1, 1), bias=False)
        (bn1): BatchNorm2d(256, eps=1e-05, momentum=0.1, affine=True, track_running_stats=True)
        (relu): ReLU(inplace=True)
        (conv2): Conv2d(256, 256, kernel_size=(3, 3), stride=(1, 1), padding=(1, 1), bias=False)
        (bn2): BatchNorm2d(256, eps=1e-05, momentum=0.1, affine=True, track_running_stats=True)
      )
      (3): BasicBlock(
        (conv1): Conv2d(256, 256, kernel_size=(3, 3), stride=(1, 1), padding=(1, 1), bias=False)
        (bn1): BatchNorm2d(256, eps=1e-05, momentum=0.1, affine=True, track_running_stats=True)
        (relu): ReLU(inplace=True)
        (conv2): Conv2d(256, 256, kernel_size=(3, 3), stride=(1, 1), padding=(1, 1), bias=False)
        (bn2): BatchNorm2d(256, eps=1e-05, momentum=0.1, affine=True, track_running_stats=True)
      )
      (4): BasicBlock(
        (conv1): Conv2d(256, 256, kernel_size=(3, 3), stride=(1, 1), padding=(1, 1), bias=False)
        (bn1): BatchNorm2d(256, eps=1e-05, momentum=0.1, affine=True, track_running_stats=True)
        (relu): ReLU(inplace=True)
        (conv2): Conv2d(256, 256, kernel_size=(3, 3), stride=(1, 1), padding=(1, 1), bias=False)
        (bn2): BatchNorm2d(256, eps=1e-05, momentum=0.1, affine=True, track_running_stats=True)
      )
      (5): BasicBlock(
        (conv1): Conv2d(256, 256, kernel_size=(3, 3), stride=(1, 1), padding=(1, 1), bias=False)
        (bn1): BatchNorm2d(256, eps=1e-05, momentum=0.1, affine=True, track_running_stats=True)
        (relu): ReLU(inplace=True)
        (conv2): Conv2d(256, 256, kernel_size=(3, 3), stride=(1, 1), padding=(1, 1), bias=False)
        (bn2): BatchNorm2d(256, eps=1e-05, momentum=0.1, affine=True, track_running_stats=True)
      )
    )
    (layer4): Sequential(
      (0): BasicBlock(
        (conv1): Conv2d(256, 512, kernel_size=(3, 3), stride=(2, 2), padding=(1, 1), bias=False)
        (bn1): BatchNorm2d(512, eps=1e-05, momentum=0.1, affine=True, track_running_stats=True)
        (relu): ReLU(inplace=True)
        (conv2): Conv2d(512, 512, kernel_size=(3, 3), stride=(1, 1), padding=(1, 1), bias=False)
        (bn2): BatchNorm2d(512, eps=1e-05, momentum=0.1, affine=True, track_running_stats=True)
        (downsample): Sequential(
          (0): Conv2d(256, 512, kernel_size=(1, 1), stride=(2, 2), bias=False)
          (1): BatchNorm2d(512, eps=1e-05, momentum=0.1, affine=True, track_running_stats=True)
        )
      )
      (1): BasicBlock(
        (conv1): Conv2d(512, 512, kernel_size=(3, 3), stride=(1, 1), padding=(1, 1), bias=False)
        (bn1): BatchNorm2d(512, eps=1e-05, momentum=0.1, affine=True, track_running_stats=True)
        (relu): ReLU(inplace=True)
        (conv2): Conv2d(512, 512, kernel_size=(3, 3), stride=(1, 1), padding=(1, 1), bias=False)
        (bn2): BatchNorm2d(512, eps=1e-05, momentum=0.1, affine=True, track_running_stats=True)
      )
      (2): BasicBlock(
        (conv1): Conv2d(512, 512, kernel_size=(3, 3), stride=(1, 1), padding=(1, 1), bias=False)
        (bn1): BatchNorm2d(512, eps=1e-05, momentum=0.1, affine=True, track_running_stats=True)
        (relu): ReLU(inplace=True)
        (conv2): Conv2d(512, 512, kernel_size=(3, 3), stride=(1, 1), padding=(1, 1), bias=False)
        (bn2): BatchNorm2d(512, eps=1e-05, momentum=0.1, affine=True, track_running_stats=True)
      )
    )
  )
  (decoder): UnetDecoder(
    (center): Identity()
    (blocks): ModuleList(
      (0): DecoderBlock(
        (conv1): Conv2dReLU(
          (0): Conv2d(768, 256, kernel_size=(3, 3), stride=(1, 1), padding=(1, 1), bias=False)
          (1): BatchNorm2d(256, eps=1e-05, momentum=0.1, affine=True, track_running_stats=True)
          (2): ReLU(inplace=True)
        )
        (attention1): Attention(
          (attention): SCSEModule(
            (cSE): Sequential(
              (0): AdaptiveAvgPool2d(output_size=1)
              (1): Conv2d(768, 48, kernel_size=(1, 1), stride=(1, 1))
              (2): ReLU(inplace=True)
              (3): Conv2d(48, 768, kernel_size=(1, 1), stride=(1, 1))
              (4): Sigmoid()
            )
            (sSE): Sequential(
              (0): Conv2d(768, 1, kernel_size=(1, 1), stride=(1, 1))
              (1): Sigmoid()
            )
          )
        )
        (conv2): Conv2dReLU(
          (0): Conv2d(256, 256, kernel_size=(3, 3), stride=(1, 1), padding=(1, 1), bias=False)
          (1): BatchNorm2d(256, eps=1e-05, momentum=0.1, affine=True, track_running_stats=True)
          (2): ReLU(inplace=True)
        )
        (attention2): Attention(
          (attention): SCSEModule(
            (cSE): Sequential(
              (0): AdaptiveAvgPool2d(output_size=1)
              (1): Conv2d(256, 16, kernel_size=(1, 1), stride=(1, 1))
              (2): ReLU(inplace=True)
              (3): Conv2d(16, 256, kernel_size=(1, 1), stride=(1, 1))
              (4): Sigmoid()
            )
            (sSE): Sequential(
              (0): Conv2d(256, 1, kernel_size=(1, 1), stride=(1, 1))
              (1): Sigmoid()
            )
          )
        )
      )
      (1): DecoderBlock(
        (conv1): Conv2dReLU(
          (0): Conv2d(384, 128, kernel_size=(3, 3), stride=(1, 1), padding=(1, 1), bias=False)
          (1): BatchNorm2d(128, eps=1e-05, momentum=0.1, affine=True, track_running_stats=True)
          (2): ReLU(inplace=True)
        )
        (attention1): Attention(
          (attention): SCSEModule(
            (cSE): Sequential(
              (0): AdaptiveAvgPool2d(output_size=1)
              (1): Conv2d(384, 24, kernel_size=(1, 1), stride=(1, 1))
              (2): ReLU(inplace=True)
              (3): Conv2d(24, 384, kernel_size=(1, 1), stride=(1, 1))
              (4): Sigmoid()
            )
            (sSE): Sequential(
              (0): Conv2d(384, 1, kernel_size=(1, 1), stride=(1, 1))
              (1): Sigmoid()
            )
          )
        )
        (conv2): Conv2dReLU(
          (0): Conv2d(128, 128, kernel_size=(3, 3), stride=(1, 1), padding=(1, 1), bias=False)
          (1): BatchNorm2d(128, eps=1e-05, momentum=0.1, affine=True, track_running_stats=True)
          (2): ReLU(inplace=True)
        )
        (attention2): Attention(
          (attention): SCSEModule(
            (cSE): Sequential(
              (0): AdaptiveAvgPool2d(output_size=1)
              (1): Conv2d(128, 8, kernel_size=(1, 1), stride=(1, 1))
              (2): ReLU(inplace=True)
              (3): Conv2d(8, 128, kernel_size=(1, 1), stride=(1, 1))
              (4): Sigmoid()
            )
            (sSE): Sequential(
              (0): Conv2d(128, 1, kernel_size=(1, 1), stride=(1, 1))
              (1): Sigmoid()
            )
          )
        )
      )
      (2): DecoderBlock(
        (conv1): Conv2dReLU(
          (0): Conv2d(192, 64, kernel_size=(3, 3), stride=(1, 1), padding=(1, 1), bias=False)
          (1): BatchNorm2d(64, eps=1e-05, momentum=0.1, affine=True, track_running_stats=True)
          (2): ReLU(inplace=True)
        )
        (attention1): Attention(
          (attention): SCSEModule(
            (cSE): Sequential(
              (0): AdaptiveAvgPool2d(output_size=1)
              (1): Conv2d(192, 12, kernel_size=(1, 1), stride=(1, 1))
              (2): ReLU(inplace=True)
              (3): Conv2d(12, 192, kernel_size=(1, 1), stride=(1, 1))
              (4): Sigmoid()
            )
            (sSE): Sequential(
              (0): Conv2d(192, 1, kernel_size=(1, 1), stride=(1, 1))
              (1): Sigmoid()
            )
          )
        )
        (conv2): Conv2dReLU(
          (0): Conv2d(64, 64, kernel_size=(3, 3), stride=(1, 1), padding=(1, 1), bias=False)
          (1): BatchNorm2d(64, eps=1e-05, momentum=0.1, affine=True, track_running_stats=True)
          (2): ReLU(inplace=True)
        )
        (attention2): Attention(
          (attention): SCSEModule(
            (cSE): Sequential(
              (0): AdaptiveAvgPool2d(output_size=1)
              (1): Conv2d(64, 4, kernel_size=(1, 1), stride=(1, 1))
              (2): ReLU(inplace=True)
              (3): Conv2d(4, 64, kernel_size=(1, 1), stride=(1, 1))
              (4): Sigmoid()
            )
            (sSE): Sequential(
              (0): Conv2d(64, 1, kernel_size=(1, 1), stride=(1, 1))
              (1): Sigmoid()
            )
          )
        )
      )
      (3): DecoderBlock(
        (conv1): Conv2dReLU(
          (0): Conv2d(128, 32, kernel_size=(3, 3), stride=(1, 1), padding=(1, 1), bias=False)
          (1): BatchNorm2d(32, eps=1e-05, momentum=0.1, affine=True, track_running_stats=True)
          (2): ReLU(inplace=True)
        )
        (attention1): Attention(
          (attention): SCSEModule(
            (cSE): Sequential(
              (0): AdaptiveAvgPool2d(output_size=1)
              (1): Conv2d(128, 8, kernel_size=(1, 1), stride=(1, 1))
              (2): ReLU(inplace=True)
              (3): Conv2d(8, 128, kernel_size=(1, 1), stride=(1, 1))
              (4): Sigmoid()
            )
            (sSE): Sequential(
              (0): Conv2d(128, 1, kernel_size=(1, 1), stride=(1, 1))
              (1): Sigmoid()
            )
          )
        )
        (conv2): Conv2dReLU(
          (0): Conv2d(32, 32, kernel_size=(3, 3), stride=(1, 1), padding=(1, 1), bias=False)
          (1): BatchNorm2d(32, eps=1e-05, momentum=0.1, affine=True, track_running_stats=True)
          (2): ReLU(inplace=True)
        )
        (attention2): Attention(
          (attention): SCSEModule(
            (cSE): Sequential(
              (0): AdaptiveAvgPool2d(output_size=1)
              (1): Conv2d(32, 2, kernel_size=(1, 1), stride=(1, 1))
              (2): ReLU(inplace=True)
              (3): Conv2d(2, 32, kernel_size=(1, 1), stride=(1, 1))
              (4): Sigmoid()
            )
            (sSE): Sequential(
              (0): Conv2d(32, 1, kernel_size=(1, 1), stride=(1, 1))
              (1): Sigmoid()
            )
          )
        )
      )
      (4): DecoderBlock(
        (conv1): Conv2dReLU(
          (0): Conv2d(32, 16, kernel_size=(3, 3), stride=(1, 1), padding=(1, 1), bias=False)
          (1): BatchNorm2d(16, eps=1e-05, momentum=0.1, affine=True, track_running_stats=True)
          (2): ReLU(inplace=True)
        )
        (attention1): Attention(
          (attention): SCSEModule(
            (cSE): Sequential(
              (0): AdaptiveAvgPool2d(output_size=1)
              (1): Conv2d(32, 2, kernel_size=(1, 1), stride=(1, 1))
              (2): ReLU(inplace=True)
              (3): Conv2d(2, 32, kernel_size=(1, 1), stride=(1, 1))
              (4): Sigmoid()
            )
            (sSE): Sequential(
              (0): Conv2d(32, 1, kernel_size=(1, 1), stride=(1, 1))
              (1): Sigmoid()
            )
          )
        )
        (conv2): Conv2dReLU(
          (0): Conv2d(16, 16, kernel_size=(3, 3), stride=(1, 1), padding=(1, 1), bias=False)
          (1): BatchNorm2d(16, eps=1e-05, momentum=0.1, affine=True, track_running_stats=True)
          (2): ReLU(inplace=True)
        )
        (attention2): Attention(
          (attention): SCSEModule(
            (cSE): Sequential(
              (0): AdaptiveAvgPool2d(output_size=1)
              (1): Conv2d(16, 1, kernel_size=(1, 1), stride=(1, 1))
              (2): ReLU(inplace=True)
              (3): Conv2d(1, 16, kernel_size=(1, 1), stride=(1, 1))
              (4): Sigmoid()
            )
            (sSE): Sequential(
              (0): Conv2d(16, 1, kernel_size=(1, 1), stride=(1, 1))
              (1): Sigmoid()
            )
          )
        )
      )
    )
  )
  (segmentation_head): SegmentationHead(
    (0): Conv2d(16, 1, kernel_size=(3, 3), stride=(1, 1), padding=(1, 1))
    (1): Identity()
    (2): Activation(
      (activation): Identity()
    )
  )
)
    def forward(self, x):
        """Sequentially pass `x` trough model`s encoder, decoder and heads"""

        self.check_input_shape(x)

        features = self.encoder(x)
        decoder_output = self.decoder(*features)

        masks = self.segmentation_head(decoder_output)
…
